…
└── Entropy-based Pruning (threshold=0.1)

🔍 COMPREHENSIVE MODEL ANALYSIS
====================================================================================================

1️⃣ HALO-UNet (Hardware Aware Lightweight Optimized U-Net)
================================================================================
Model: HALO-UNet
================================================================================
Layer (type)                   Output Shape         Param #         Trainable 
================================================================================
Conv2d                         [1, 3, 256, 256]     27              True      
BatchNorm2d                    [1, 3, 256, 256]     6               True      
ReLU                           [1, 3, 256, 256]     0               True      
Conv2d                         [1, 32, 256, 256]    96              True      
BatchNorm2d                    [1, 32, 256, 256]    64              True      
ReLU                           [1, 32, 256, 256]    0               True
DepthwiseSeparableConv         [1, 32, 256, 256]    0               True
Conv2d                         [1, 32, 256, 256]    288             True
BatchNorm2d                    [1, 32, 256, 256]    64              True
ReLU                           [1, 32, 256, 256]    0               True
Conv2d                         [1, 32, 256, 256]    1024            True
BatchNorm2d                    [1, 32, 256, 256]    64              True
ReLU                           [1, 32, 256, 256]    0               True
DepthwiseSeparableConv         [1, 32, 256, 256]    0               True
HALOUNetBlock                  [1, 32, 256, 256]    0               True
MaxPool2d                      [1, 32, 128, 128]    0               True
Conv2d                         [1, 32, 128, 128]    288             True
BatchNorm2d                    [1, 32, 128, 128]    64              True
ReLU                           [1, 32, 128, 128]    0               True
Conv2d                         [1, 64, 128, 128]    2048            True
BatchNorm2d                    [1, 64, 128, 128]    128             True
ReLU                           [1, 64, 128, 128]    0               True
DepthwiseSeparableConv         [1, 64, 128, 128]    0               True
Conv2d                         [1, 64, 128, 128]    576             True
BatchNorm2d                    [1, 64, 128, 128]    128             True
ReLU                           [1, 64, 128, 128]    0               True
Conv2d                         [1, 64, 128, 128]    4096            True
BatchNorm2d                    [1, 64, 128, 128]    128             True
ReLU                           [1, 64, 128, 128]    0               True
DepthwiseSeparableConv         [1, 64, 128, 128]    0               True
HALOUNetBlock                  [1, 64, 128, 128]    0               True
MaxPool2d                      [1, 64, 64, 64]      0               True
Conv2d                         [1, 64, 64, 64]      576             True
BatchNorm2d                    [1, 64, 64, 64]      128             True
ReLU                           [1, 64, 64, 64]      0               True
Conv2d                         [1, 128, 64, 64]     8192            True
BatchNorm2d                    [1, 128, 64, 64]     256             True
ReLU                           [1, 128, 64, 64]     0               True
DepthwiseSeparableConv         [1, 128, 64, 64]     0               True
Conv2d                         [1, 128, 64, 64]     1152            True
BatchNorm2d                    [1, 128, 64, 64]     256             True
ReLU                           [1, 128, 64, 64]     0               True      
Conv2d                         [1, 128, 64, 64]     16384           True
BatchNorm2d                    [1, 128, 64, 64]     256             True
ReLU                           [1, 128, 64, 64]     0               True
DepthwiseSeparableConv         [1, 128, 64, 64]     0               True
HALOUNetBlock                  [1, 128, 64, 64]     0               True
MaxPool2d                      [1, 128, 32, 32]     0               True
Conv2d                         [1, 128, 32, 32]     1152            True
BatchNorm2d                    [1, 128, 32, 32]     256             True
ReLU                           [1, 128, 32, 32]     0               True
Conv2d                         [1, 256, 32, 32]     32768           True
BatchNorm2d                    [1, 256, 32, 32]     512             True
ReLU                           [1, 256, 32, 32]     0               True
DepthwiseSeparableConv         [1, 256, 32, 32]     0               True
Conv2d                         [1, 256, 32, 32]     2304            True
BatchNorm2d                    [1, 256, 32, 32]     512             True
ReLU                           [1, 256, 32, 32]     0               True
Conv2d                         [1, 256, 32, 32]     65536           True
BatchNorm2d                    [1, 256, 32, 32]     512             True
ReLU                           [1, 256, 32, 32]     0               True
DepthwiseSeparableConv         [1, 256, 32, 32]     0               True
HALOUNetBlock                  [1, 256, 32, 32]     0               True      
MaxPool2d                      [1, 256, 16, 16]     0               True
Conv2d                         [1, 256, 16, 16]     2304            True
BatchNorm2d                    [1, 256, 16, 16]     512             True
ReLU                           [1, 256, 16, 16]     0               True
Conv2d                         [1, 512, 16, 16]     131072          True
BatchNorm2d                    [1, 512, 16, 16]     1024            True
ReLU                           [1, 512, 16, 16]     0               True
DepthwiseSeparableConv         [1, 512, 16, 16]     0               True
Conv2d                         [1, 512, 16, 16]     4608            True
BatchNorm2d                    [1, 512, 16, 16]     1024            True
ReLU                           [1, 512, 16, 16]     0               True
Conv2d                         [1, 512, 16, 16]     262144          True
BatchNorm2d                    [1, 512, 16, 16]     1024            True
ReLU                           [1, 512, 16, 16]     0               True
DepthwiseSeparableConv         [1, 512, 16, 16]     0               True
HALOUNetBlock                  [1, 512, 16, 16]     0               True
AdaptiveAvgPool2d              [1, 512, 1, 1]       0               True
Conv2d                         [1, 32, 1, 1]        16384           True
ReLU                           [1, 32, 1, 1]        0               True
Conv2d                         [1, 512, 1, 1]       16384           True
AdaptiveMaxPool2d              [1, 512, 1, 1]       0               True
Conv2d                         [1, 32, 1, 1]        16384           True
ReLU                           [1, 32, 1, 1]        0               True
Conv2d                         [1, 512, 1, 1]       16384           True
Sigmoid                        [1, 512, 1, 1]       0               True
ChannelAttention               [1, 512, 1, 1]       0               True
Conv2d                         [1, 1, 16, 16]       18              True
Sigmoid                        [1, 1, 16, 16]       0               True      
SpatialAttention               [1, 1, 16, 16]       0               True
UltraLightAttention            [1, 512, 16, 16]     0               True
ConvTranspose2d                [1, 256, 32, 32]     524544          True
Conv2d                         [1, 512, 32, 32]     4608            True
BatchNorm2d                    [1, 512, 32, 32]     1024            True
ReLU                           [1, 512, 32, 32]     0               True
Conv2d                         [1, 256, 32, 32]     131072          True
BatchNorm2d                    [1, 256, 32, 32]     512             True
ReLU                           [1, 256, 32, 32]     0               True
DepthwiseSeparableConv         [1, 256, 32, 32]     0               True
Conv2d                         [1, 256, 32, 32]     2304            True
BatchNorm2d                    [1, 256, 32, 32]     512             True
ReLU                           [1, 256, 32, 32]     0               True
Conv2d                         [1, 256, 32, 32]     65536           True
BatchNorm2d                    [1, 256, 32, 32]     512             True
ReLU                           [1, 256, 32, 32]     0               True
DepthwiseSeparableConv         [1, 256, 32, 32]     0               True
HALOUNetBlock                  [1, 256, 32, 32]     0               True
ConvTranspose2d                [1, 128, 64, 64]     131200          True
Conv2d                         [1, 256, 64, 64]     2304            True
BatchNorm2d                    [1, 256, 64, 64]     512             True
ReLU                           [1, 256, 64, 64]     0               True
Conv2d                         [1, 128, 64, 64]     32768           True
BatchNorm2d                    [1, 128, 64, 64]     256             True
ReLU                           [1, 128, 64, 64]     0               True
DepthwiseSeparableConv         [1, 128, 64, 64]     0               True
Conv2d                         [1, 128, 64, 64]     1152            True
BatchNorm2d                    [1, 128, 64, 64]     256             True
ReLU                           [1, 128, 64, 64]     0               True
Conv2d                         [1, 128, 64, 64]     16384           True
BatchNorm2d                    [1, 128, 64, 64]     256             True
ReLU                           [1, 128, 64, 64]     0               True
DepthwiseSeparableConv         [1, 128, 64, 64]     0               True
HALOUNetBlock                  [1, 128, 64, 64]     0               True
ConvTranspose2d                [1, 64, 128, 128]    32832           True
Conv2d                         [1, 128, 128, 128]   1152            True
BatchNorm2d                    [1, 128, 128, 128]   256             True      
ReLU                           [1, 128, 128, 128]   0               True
Conv2d                         [1, 64, 128, 128]    8192            True
BatchNorm2d                    [1, 64, 128, 128]    128             True
ReLU                           [1, 64, 128, 128]    0               True
DepthwiseSeparableConv         [1, 64, 128, 128]    0               True
Conv2d                         [1, 64, 128, 128]    576             True
BatchNorm2d                    [1, 64, 128, 128]    128             True
ReLU                           [1, 64, 128, 128]    0               True
Conv2d                         [1, 64, 128, 128]    4096            True
BatchNorm2d                    [1, 64, 128, 128]    128             True
ReLU                           [1, 64, 128, 128]    0               True
DepthwiseSeparableConv         [1, 64, 128, 128]    0               True
HALOUNetBlock                  [1, 64, 128, 128]    0               True
ConvTranspose2d                [1, 32, 256, 256]    8224            True
Conv2d                         [1, 64, 256, 256]    576             True
BatchNorm2d                    [1, 64, 256, 256]    128             True
ReLU                           [1, 64, 256, 256]    0               True
Conv2d                         [1, 32, 256, 256]    2048            True
BatchNorm2d                    [1, 32, 256, 256]    64              True
ReLU                           [1, 32, 256, 256]    0               True
DepthwiseSeparableConv         [1, 32, 256, 256]    0               True
Conv2d                         [1, 32, 256, 256]    288             True
BatchNorm2d                    [1, 32, 256, 256]    64              True
ReLU                           [1, 32, 256, 256]    0               True
Conv2d                         [1, 32, 256, 256]    1024            True
BatchNorm2d                    [1, 32, 256, 256]    64              True
ReLU                           [1, 32, 256, 256]    0               True
DepthwiseSeparableConv         [1, 32, 256, 256]    0               True
HALOUNetBlock                  [1, 32, 256, 256]    0               True
Conv2d                         [1, 1, 256, 256]     33              True
HALO_UNet                      [1, 1, 256, 256]     0               True
================================================================================
Total params: 1,584,820
Trainable params: 1,584,820
Non-trainable params: 0
Model size: 6.05 MB
================================================================================

2️⃣ Traditional U-Net (Baseline)
================================================================================
Model: Traditional U-Net
================================================================================
Layer (type)                   Output Shape         Param #         Trainable 
================================================================================
Conv2d                         [1, 32, 256, 256]    864             True
BatchNorm2d                    [1, 32, 256, 256]    64              True
ReLU                           [1, 32, 256, 256]    0               True
Conv2d                         [1, 32, 256, 256]    9216            True
BatchNorm2d                    [1, 32, 256, 256]    64              True
ReLU                           [1, 32, 256, 256]    0               True
DoubleConv                     [1, 32, 256, 256]    0               True
MaxPool2d                      [1, 32, 128, 128]    0               True
Conv2d                         [1, 64, 128, 128]    18432           True
BatchNorm2d                    [1, 64, 128, 128]    128             True
ReLU                           [1, 64, 128, 128]    0               True
Conv2d                         [1, 64, 128, 128]    36864           True
BatchNorm2d                    [1, 64, 128, 128]    128             True
ReLU                           [1, 64, 128, 128]    0               True
DoubleConv                     [1, 64, 128, 128]    0               True
MaxPool2d                      [1, 64, 64, 64]      0               True
Conv2d                         [1, 128, 64, 64]     73728           True
BatchNorm2d                    [1, 128, 64, 64]     256             True
ReLU                           [1, 128, 64, 64]     0               True
Conv2d                         [1, 128, 64, 64]     147456          True
BatchNorm2d                    [1, 128, 64, 64]     256             True
ReLU                           [1, 128, 64, 64]     0               True
DoubleConv                     [1, 128, 64, 64]     0               True
MaxPool2d                      [1, 128, 32, 32]     0               True
Conv2d                         [1, 256, 32, 32]     294912          True
BatchNorm2d                    [1, 256, 32, 32]     512             True
ReLU                           [1, 256, 32, 32]     0               True
Conv2d                         [1, 256, 32, 32]     589824          True
BatchNorm2d                    [1, 256, 32, 32]     512             True
ReLU                           [1, 256, 32, 32]     0               True
DoubleConv                     [1, 256, 32, 32]     0               True
MaxPool2d                      [1, 256, 16, 16]     0               True
Conv2d                         [1, 512, 16, 16]     1179648         True
BatchNorm2d                    [1, 512, 16, 16]     1024            True
ReLU                           [1, 512, 16, 16]     0               True      
Conv2d                         [1, 512, 16, 16]     2359296         True
BatchNorm2d                    [1, 512, 16, 16]     1024            True
ReLU                           [1, 512, 16, 16]     0               True
DoubleConv                     [1, 512, 16, 16]     0               True
ConvTranspose2d                [1, 256, 32, 32]     524544          True
Conv2d                         [1, 256, 32, 32]     1179648         True
BatchNorm2d                    [1, 256, 32, 32]     512             True
ReLU                           [1, 256, 32, 32]     0               True
Conv2d                         [1, 256, 32, 32]     589824          True
BatchNorm2d                    [1, 256, 32, 32]     512             True
ReLU                           [1, 256, 32, 32]     0               True
DoubleConv                     [1, 256, 32, 32]     0               True
ConvTranspose2d                [1, 128, 64, 64]     131200          True
Conv2d                         [1, 128, 64, 64]     294912          True
BatchNorm2d                    [1, 128, 64, 64]     256             True
ReLU                           [1, 128, 64, 64]     0               True
Conv2d                         [1, 128, 64, 64]     147456          True
BatchNorm2d                    [1, 128, 64, 64]     256             True
ReLU                           [1, 128, 64, 64]     0               True
DoubleConv                     [1, 128, 64, 64]     0               True
ConvTranspose2d                [1, 64, 128, 128]    32832           True
Conv2d                         [1, 64, 128, 128]    73728           True
BatchNorm2d                    [1, 64, 128, 128]    128             True
ReLU                           [1, 64, 128, 128]    0               True
Conv2d                         [1, 64, 128, 128]    36864           True
BatchNorm2d                    [1, 64, 128, 128]    128             True
ReLU                           [1, 64, 128, 128]    0               True
DoubleConv                     [1, 64, 128, 128]    0               True
ConvTranspose2d                [1, 32, 256, 256]    8224            True
Conv2d                         [1, 32, 256, 256]    18432           True
BatchNorm2d                    [1, 32, 256, 256]    64              True
ReLU                           [1, 32, 256, 256]    0               True
Conv2d                         [1, 32, 256, 256]    9216            True
BatchNorm2d                    [1, 32, 256, 256]    64              True
ReLU                           [1, 32, 256, 256]    0               True      
DoubleConv                     [1, 32, 256, 256]    0               True
Conv2d                         [1, 1, 256, 256]     33              True
UNET                           [1, 1, 256, 256]     0               True
================================================================================
Total params: 7,763,041
Trainable params: 7,763,041
Non-trainable params: 0
Model size: 29.61 MB
================================================================================

3️⃣ Denoising Autoencoder (DNAP Component)
================================================================================
Model: Denoising Autoencoder
================================================================================
Layer (type)                   Output Shape         Param #         Trainable 
================================================================================
Conv2d                         [1, 16, 256, 256]    448             True
ReLU                           [1, 16, 256, 256]    0               True
Conv2d                         [1, 64, 256, 256]    9280            True
ReLU                           [1, 64, 256, 256]    0               True
Conv2d                         [1, 16, 256, 256]    9232            True
ReLU                           [1, 16, 256, 256]    0               True
Conv2d                         [1, 64, 256, 256]    9280            True
ReLU                           [1, 64, 256, 256]    0               True
Conv2d                         [1, 16, 256, 256]    9232            True
ReLU                           [1, 16, 256, 256]    0               True
Conv2d                         [1, 3, 256, 256]     435             True
Sigmoid                        [1, 3, 256, 256]     0               True
DenoisingAutoencoder           [1, 3, 256, 256]     0               True
================================================================================
Total params: 37,907
Trainable params: 37,907
Non-trainable params: 0
Model size: 0.14 MB
================================================================================

4️⃣ Ultra-Light Attention Module
================================================================================
Model: ULA Module
================================================================================
Layer (type)                   Output Shape         Param #         Trainable
================================================================================
AdaptiveAvgPool2d              [1, 64, 1, 1]        0               True
Conv2d                         [1, 4, 1, 1]         256             True
ReLU                           [1, 4, 1, 1]         0               True
Conv2d                         [1, 64, 1, 1]        256             True      
AdaptiveMaxPool2d              [1, 64, 1, 1]        0               True
Conv2d                         [1, 4, 1, 1]         256             True
ReLU                           [1, 4, 1, 1]         0               True
Conv2d                         [1, 64, 1, 1]        256             True
Sigmoid                        [1, 64, 1, 1]        0               True
ChannelAttention               [1, 64, 1, 1]        0               True
Conv2d                         [1, 1, 64, 64]       18              True
Sigmoid                        [1, 1, 64, 64]       0               True
SpatialAttention               [1, 1, 64, 64]       0               True
UltraLightAttention            [1, 64, 64, 64]      0               True
================================================================================
Total params: 1,042
Trainable params: 1,042
Non-trainable params: 0
Model size: 0.00 MB
================================================================================

📊 EFFICIENCY COMPARISON
================================================================================
Parameter Reduction: 79.59%
…
